…
=1.0, cutmix_minmax=None, mixup_prob=1.0, mixup_switch_prob=0.5, mixup_mode='batch', teacher_model='regnety_160', teacher_path='', distillation_type='none', distillation_alpha=0.5, distillation_tau=1.0, finetune='', data_path='/data2/ImageNet1k/data/', data_set='IMNET', inat_category='name', output_dir='save', device='cuda', seed=0, resume='', start_epoch=0, eval=False, dist_eval=True, num_workers=16, pin_mem=True, world_size=2, dist_url='env://', rank=0, gpu=0, distributed=True, dist_backend='nccl')
Creating model: RMT_S
VisRetNet(
  (patch_embed): PatchEmbed(
    (proj): Sequential(
      (0): Conv2d(3, 32, kernel_size=(3, 3), stride=(2, 2), padding=(1, 1))
      (1): BatchNorm2d(32, eps=1e-05, momentum=0.1, affine=True, track_running_stats=True)
      (2): GELU(approximate='none')
      (3): Conv2d(32, 32, kernel_size=(3, 3), stride=(1, 1), padding=(1, 1))
      (4): BatchNorm2d(32, eps=1e-05, momentum=0.1, affine=True, track_running_stats=True)
      (5): GELU(approximate='none')
      (6): Conv2d(32, 64, kernel_size=(3, 3), stride=(2, 2), padding=(1, 1))
      (7): BatchNorm2d(64, eps=1e-05, momentum=0.1, affine=True, track_running_stats=True)
      (8): GELU(approximate='none')
      (9): Conv2d(64, 64, kernel_size=(3, 3), stride=(1, 1), padding=(1, 1))
      (10): BatchNorm2d(64, eps=1e-05, momentum=0.1, affine=True, track_running_stats=True)
    )
  )
  (layers): ModuleList(
    (0): BasicLayer(
      (Relpos): RetNetRelPos2d()
      (blocks): ModuleList(
        (0): RetBlock(
          (retention_layer_norm): LayerNorm((64,), eps=1e-06, elementwise_affine=True)
          (retention): VisionRetentionChunk(
            (q_proj): Linear(in_features=64, out_features=64, bias=True)
            (k_proj): Linear(in_features=64, out_features=64, bias=True)
            (v_proj): Linear(in_features=64, out_features=64, bias=True)
            (lepe): DWConv2d(
              (conv): Conv2d(64, 64, kernel_size=(5, 5), stride=(1, 1), padding=(2, 2), groups=64)
            )
            (out_proj): Linear(in_features=64, out_features=64, bias=True)
          )
          (drop_path): DropPath(drop_prob=0.000)
          (final_layer_norm): LayerNorm((64,), eps=1e-06, elementwise_affine=True)
          (ffn): FeedForwardNetwork(
            (activation_dropout_module): Dropout(p=0.0, inplace=False)
            (dropout_module): Dropout(p=0.0, inplace=False)
            (fc1): Linear(in_features=64, out_features=256, bias=True)
            (fc2): Linear(in_features=256, out_features=64, bias=True)
            (dwconv): DWConv2d(
              (conv): Conv2d(256, 256, kernel_size=(3, 3), stride=(1, 1), padding=(1, 1), groups=256)
            )
          )
          (pos): DWConv2d(
            (conv): Conv2d(64, 64, kernel_size=(3, 3), stride=(1, 1), padding=(1, 1), groups=64)
          )
        )
        (1): RetBlock(
          (retention_layer_norm): LayerNorm((64,), eps=1e-06, elementwise_affine=True)
          (retention): VisionRetentionChunk(
            (q_proj): Linear(in_features=64, out_features=64, bias=True)
            (k_proj): Linear(in_features=64, out_features=64, bias=True)
            (v_proj): Linear(in_features=64, out_features=64, bias=True)
            (lepe): DWConv2d(
              (conv): Conv2d(64, 64, kernel_size=(5, 5), stride=(1, 1), padding=(2, 2), groups=64)
            )
            (out_proj): Linear(in_features=64, out_features=64, bias=True)
          )
          (drop_path): DropPath(drop_prob=0.005)
          (final_layer_norm): LayerNorm((64,), eps=1e-06, elementwise_affine=True)
          (ffn): FeedForwardNetwork(
            (activation_dropout_module): Dropout(p=0.0, inplace=False)
            (dropout_module): Dropout(p=0.0, inplace=False)
            (fc1): Linear(in_features=64, out_features=256, bias=True)
            (fc2): Linear(in_features=256, out_features=64, bias=True)
            (dwconv): DWConv2d(
              (conv): Conv2d(256, 256, kernel_size=(3, 3), stride=(1, 1), padding=(1, 1), groups=256)
            )
          )
          (pos): DWConv2d(
            (conv): Conv2d(64, 64, kernel_size=(3, 3), stride=(1, 1), padding=(1, 1), groups=64)
          )
        )
        (2): RetBlock(
          (retention_layer_norm): LayerNorm((64,), eps=1e-06, elementwise_affine=True)
          (retention): VisionRetentionChunk(
            (q_proj): Linear(in_features=64, out_features=64, bias=True)
            (k_proj): Linear(in_features=64, out_features=64, bias=True)
            (v_proj): Linear(in_features=64, out_features=64, bias=True)
            (lepe): DWConv2d(
              (conv): Conv2d(64, 64, kernel_size=(5, 5), stride=(1, 1), padding=(2, 2), groups=64)
            )
            (out_proj): Linear(in_features=64, out_features=64, bias=True)
          )
          (drop_path): DropPath(drop_prob=0.011)
          (final_layer_norm): LayerNorm((64,), eps=1e-06, elementwise_affine=True)
          (ffn): FeedForwardNetwork(
            (activation_dropout_module): Dropout(p=0.0, inplace=False)
            (dropout_module): Dropout(p=0.0, inplace=False)
            (fc1): Linear(in_features=64, out_features=256, bias=True)
            (fc2): Linear(in_features=256, out_features=64, bias=True)
            (dwconv): DWConv2d(
              (conv): Conv2d(256, 256, kernel_size=(3, 3), stride=(1, 1), padding=(1, 1), groups=256)
            )
          )
          (pos): DWConv2d(
            (conv): Conv2d(64, 64, kernel_size=(3, 3), stride=(1, 1), padding=(1, 1), groups=64)
          )
        )
      )
      (downsample): PatchMerging(
        (reduction): Conv2d(64, 128, kernel_size=(3, 3), stride=(2, 2), padding=(1, 1))
        (norm): BatchNorm2d(128, eps=1e-05, momentum=0.1, affine=True, track_running_stats=True)
      )
    )
    (1): BasicLayer(
      (Relpos): RetNetRelPos2d()
      (blocks): ModuleList(
        (0): RetBlock(
          (retention_layer_norm): LayerNorm((128,), eps=1e-06, elementwise_affine=True)
          (retention): VisionRetentionChunk(
            (q_proj): Linear(in_features=128, out_features=128, bias=True)
            (k_proj): Linear(in_features=128, out_features=128, bias=True)
            (v_proj): Linear(in_features=128, out_features=128, bias=True)
            (lepe): DWConv2d(
              (conv): Conv2d(128, 128, kernel_size=(5, 5), stride=(1, 1), padding=(2, 2), groups=128)
            )
            (out_proj): Linear(in_features=128, out_features=128, bias=True)
          )
          (drop_path): DropPath(drop_prob=0.016)
          (final_layer_norm): LayerNorm((128,), eps=1e-06, elementwise_affine=True)
          (ffn): FeedForwardNetwork(
            (activation_dropout_module): Dropout(p=0.0, inplace=False)
            (dropout_module): Dropout(p=0.0, inplace=False)
            (fc1): Linear(in_features=128, out_features=512, bias=True)
            (fc2): Linear(in_features=512, out_features=128, bias=True)
            (dwconv): DWConv2d(
              (conv): Conv2d(512, 512, kernel_size=(3, 3), stride=(1, 1), padding=(1, 1), groups=512)
            )
          )
          (pos): DWConv2d(
            (conv): Conv2d(128, 128, kernel_size=(3, 3), stride=(1, 1), padding=(1, 1), groups=128)
          )
        )
        (1): RetBlock(
          (retention_layer_norm): LayerNorm((128,), eps=1e-06, elementwise_affine=True)
          (retention): VisionRetentionChunk(
            (q_proj): Linear(in_features=128, out_features=128, bias=True)
            (k_proj): Linear(in_features=128, out_features=128, bias=True)
            (v_proj): Linear(in_features=128, out_features=128, bias=True)
            (lepe): DWConv2d(
              (conv): Conv2d(128, 128, kernel_size=(5, 5), stride=(1, 1), padding=(2, 2), groups=128)
            )
            (out_proj): Linear(in_features=128, out_features=128, bias=True)
          )
          (drop_path): DropPath(drop_prob=0.021)
          (final_layer_norm): LayerNorm((128,), eps=1e-06, elementwise_affine=True)
          (ffn): FeedForwardNetwork(
            (activation_dropout_module): Dropout(p=0.0, inplace=False)
            (dropout_module): Dropout(p=0.0, inplace=False)
            (fc1): Linear(in_features=128, out_features=512, bias=True)
            (fc2): Linear(in_features=512, out_features=128, bias=True)
            (dwconv): DWConv2d(
              (conv): Conv2d(512, 512, kernel_size=(3, 3), stride=(1, 1), padding=(1, 1), groups=512)
            )
          )
          (pos): DWConv2d(
            (conv): Conv2d(128, 128, kernel_size=(3, 3), stride=(1, 1), padding=(1, 1), groups=128)
          )
        )
        (2): RetBlock(
          (retention_layer_norm): LayerNorm((128,), eps=1e-06, elementwise_affine=True)
          (retention): VisionRetentionChunk(
            (q_proj): Linear(in_features=128, out_features=128, bias=True)
            (k_proj): Linear(in_features=128, out_features=128, bias=True)
            (v_proj): Linear(in_features=128, out_features=128, bias=True)
            (lepe): DWConv2d(
              (conv): Conv2d(128, 128, kernel_size=(5, 5), stride=(1, 1), padding=(2, 2), groups=128)
            )
            (out_proj): Linear(in_features=128, out_features=128, bias=True)
          )
          (drop_path): DropPath(drop_prob=0.027)
          (final_layer_norm): LayerNorm((128,), eps=1e-06, elementwise_affine=True)
          (ffn): FeedForwardNetwork(
            (activation_dropout_module): Dropout(p=0.0, inplace=False)
            (dropout_module): Dropout(p=0.0, inplace=False)
            (fc1): Linear(in_features=128, out_features=512, bias=True)
            (fc2): Linear(in_features=512, out_features=128, bias=True)
            (dwconv): DWConv2d(
              (conv): Conv2d(512, 512, kernel_size=(3, 3), stride=(1, 1), padding=(1, 1), groups=512)
            )
          )
          (pos): DWConv2d(
            (conv): Conv2d(128, 128, kernel_size=(3, 3), stride=(1, 1), padding=(1, 1), groups=128)
          )
        )
        (3): RetBlock(
          (retention_layer_norm): LayerNorm((128,), eps=1e-06, elementwise_affine=True)
          (retention): VisionRetentionChunk(
            (q_proj): Linear(in_features=128, out_features=128, bias=True)
            (k_proj): Linear(in_features=128, out_features=128, bias=True)
            (v_proj): Linear(in_features=128, out_features=128, bias=True)
            (lepe): DWConv2d(
              (conv): Conv2d(128, 128, kernel_size=(5, 5), stride=(1, 1), padding=(2, 2), groups=128)
            )
            (out_proj): Linear(in_features=128, out_features=128, bias=True)
          )
          (drop_path): DropPath(drop_prob=0.032)
          (final_layer_norm): LayerNorm((128,), eps=1e-06, elementwise_affine=True)
          (ffn): FeedForwardNetwork(
            (activation_dropout_module): Dropout(p=0.0, inplace=False)
            (dropout_module): Dropout(p=0.0, inplace=False)
            (fc1): Linear(in_features=128, out_features=512, bias=True)
            (fc2): Linear(in_features=512, out_features=128, bias=True)
            (dwconv): DWConv2d(
              (conv): Conv2d(512, 512, kernel_size=(3, 3), stride=(1, 1), padding=(1, 1), groups=512)
            )
          )
          (pos): DWConv2d(
            (conv): Conv2d(128, 128, kernel_size=(3, 3), stride=(1, 1), padding=(1, 1), groups=128)
          )
        )
      )
      (downsample): PatchMerging(
        (reduction): Conv2d(128, 256, kernel_size=(3, 3), stride=(2, 2), padding=(1, 1))
        (norm): BatchNorm2d(256, eps=1e-05, momentum=0.1, affine=True, track_running_stats=True)
      )
    )
    (2): BasicLayer(
      (Relpos): RetNetRelPos2d()
      (blocks): ModuleList(
        (0): RetBlock(
          (retention_layer_norm): LayerNorm((256,), eps=1e-06, elementwise_affine=True)
          (retention): VisionRetentionChunk(
            (q_proj): Linear(in_features=256, out_features=256, bias=True)
            (k_proj): Linear(in_features=256, out_features=256, bias=True)
            (v_proj): Linear(in_features=256, out_features=256, bias=True)
            (lepe): DWConv2d(
              (conv): Conv2d(256, 256, kernel_size=(5, 5), stride=(1, 1), padding=(2, 2), groups=256)
            )
            (out_proj): Linear(in_features=256, out_features=256, bias=True)
          )
          (drop_path): DropPath(drop_prob=0.038)
          (final_layer_norm): LayerNorm((256,), eps=1e-06, elementwise_affine=True)
          (ffn): FeedForwardNetwork(
            (activation_dropout_module): Dropout(p=0.0, inplace=False)
            (dropout_module): Dropout(p=0.0, inplace=False)
            (fc1): Linear(in_features=256, out_features=768, bias=True)
            (fc2): Linear(in_features=768, out_features=256, bias=True)
            (dwconv): DWConv2d(
              (conv): Conv2d(768, 768, kernel_size=(3, 3), stride=(1, 1), padding=(1, 1), groups=768)
            )
          )
          (pos): DWConv2d(
            (conv): Conv2d(256, 256, kernel_size=(3, 3), stride=(1, 1), padding=(1, 1), groups=256)
          )
        )
        (1): RetBlock(
          (retention_layer_norm): LayerNorm((256,), eps=1e-06, elementwise_affine=True)
          (retention): VisionRetentionChunk(
            (q_proj): Linear(in_features=256, out_features=256, bias=True)
            (k_proj): Linear(in_features=256, out_features=256, bias=True)
            (v_proj): Linear(in_features=256, out_features=256, bias=True)
            (lepe): DWConv2d(
              (conv): Conv2d(256, 256, kernel_size=(5, 5), stride=(1, 1), padding=(2, 2), groups=256)
            )
            (out_proj): Linear(in_features=256, out_features=256, bias=True)
          )
          (drop_path): DropPath(drop_prob=0.043)
          (final_layer_norm): LayerNorm((256,), eps=1e-06, elementwise_affine=True)
          (ffn): FeedForwardNetwork(
            (activation_dropout_module): Dropout(p=0.0, inplace=False)
            (dropout_module): Dropout(p=0.0, inplace=False)
            (fc1): Linear(in_features=256, out_features=768, bias=True)
            (fc2): Linear(in_features=768, out_features=256, bias=True)
            (dwconv): DWConv2d(
              (conv): Conv2d(768, 768, kernel_size=(3, 3), stride=(1, 1), padding=(1, 1), groups=768)
            )
          )
          (pos): DWConv2d(
            (conv): Conv2d(256, 256, kernel_size=(3, 3), stride=(1, 1), padding=(1, 1), groups=256)
          )
        )
        (2): RetBlock(
          (retention_layer_norm): LayerNorm((256,), eps=1e-06, elementwise_affine=True)
          (retention): VisionRetentionChunk(
            (q_proj): Linear(in_features=256, out_features=256, bias=True)
            (k_proj): Linear(in_features=256, out_features=256, bias=True)
            (v_proj): Linear(in_features=256, out_features=256, bias=True)
            (lepe): DWConv2d(
              (conv): Conv2d(256, 256, kernel_size=(5, 5), stride=(1, 1), padding=(2, 2), groups=256)
            )
            (out_proj): Linear(in_features=256, out_features=256, bias=True)
          )
          (drop_path): DropPath(drop_prob=0.048)
          (final_layer_norm): LayerNorm((256,), eps=1e-06, elementwise_affine=True)
          (ffn): FeedForwardNetwork(
            (activation_dropout_module): Dropout(p=0.0, inplace=False)
            (dropout_module): Dropout(p=0.0, inplace=False)
            (fc1): Linear(in_features=256, out_features=768, bias=True)
            (fc2): Linear(in_features=768, out_features=256, bias=True)
            (dwconv): DWConv2d(
              (conv): Conv2d(768, 768, kernel_size=(3, 3), stride=(1, 1), padding=(1, 1), groups=768)
            )
          )
          (pos): DWConv2d(
            (conv): Conv2d(256, 256, kernel_size=(3, 3), stride=(1, 1), padding=(1, 1), groups=256)
          )
        )
        (3): RetBlock(
          (retention_layer_norm): LayerNorm((256,), eps=1e-06, elementwise_affine=True)
          (retention): VisionRetentionChunk(
            (q_proj): Linear(in_features=256, out_features=256, bias=True)
            (k_proj): Linear(in_features=256, out_features=256, bias=True)
            (v_proj): Linear(in_features=256, out_features=256, bias=True)
            (lepe): DWConv2d(
              (conv): Conv2d(256, 256, kernel_size=(5, 5), stride=(1, 1), padding=(2, 2), groups=256)
            )
            (out_proj): Linear(in_features=256, out_features=256, bias=True)
          )
          (drop_path): DropPath(drop_prob=0.054)
          (final_layer_norm): LayerNorm((256,), eps=1e-06, elementwise_affine=True)
          (ffn): FeedForwardNetwork(
            (activation_dropout_module): Dropout(p=0.0, inplace=False)
            (dropout_module): Dropout(p=0.0, inplace=False)
            (fc1): Linear(in_features=256, out_features=768, bias=True)
            (fc2): Linear(in_features=768, out_features=256, bias=True)
            (dwconv): DWConv2d(
              (conv): Conv2d(768, 768, kernel_size=(3, 3), stride=(1, 1), padding=(1, 1), groups=768)
            )
          )
          (pos): DWConv2d(
            (conv): Conv2d(256, 256, kernel_size=(3, 3), stride=(1, 1), padding=(1, 1), groups=256)
          )
        )
        (4): RetBlock(
          (retention_layer_norm): LayerNorm((256,), eps=1e-06, elementwise_affine=True)
          (retention): VisionRetentionChunk(
            (q_proj): Linear(in_features=256, out_features=256, bias=True)
            (k_proj): Linear(in_features=256, out_features=256, bias=True)
            (v_proj): Linear(in_features=256, out_features=256, bias=True)
            (lepe): DWConv2d(
              (conv): Conv2d(256, 256, kernel_size=(5, 5), stride=(1, 1), padding=(2, 2), groups=256)
            )
            (out_proj): Linear(in_features=256, out_features=256, bias=True)
          )
          (drop_path): DropPath(drop_prob=0.059)
          (final_layer_norm): LayerNorm((256,), eps=1e-06, elementwise_affine=True)
          (ffn): FeedForwardNetwork(
            (activation_dropout_module): Dropout(p=0.0, inplace=False)
            (dropout_module): Dropout(p=0.0, inplace=False)
            (fc1): Linear(in_features=256, out_features=768, bias=True)
            (fc2): Linear(in_features=768, out_features=256, bias=True)
            (dwconv): DWConv2d(
              (conv): Conv2d(768, 768, kernel_size=(3, 3), stride=(1, 1), padding=(1, 1), groups=768)
            )
          )
          (pos): DWConv2d(
            (conv): Conv2d(256, 256, kernel_size=(3, 3), stride=(1, 1), padding=(1, 1), groups=256)
          )
        )
        (5): RetBlock(
          (retention_layer_norm): LayerNorm((256,), eps=1e-06, elementwise_affine=True)
          (retention): VisionRetentionChunk(
            (q_proj): Linear(in_features=256, out_features=256, bias=True)
            (k_proj): Linear(in_features=256, out_features=256, bias=True)
            (v_proj): Linear(in_features=256, out_features=256, bias=True)
            (lepe): DWConv2d(
              (conv): Conv2d(256, 256, kernel_size=(5, 5), stride=(1, 1), padding=(2, 2), groups=256)
            )
            (out_proj): Linear(in_features=256, out_features=256, bias=True)
          )
          (drop_path): DropPath(drop_prob=0.064)
          (final_layer_norm): LayerNorm((256,), eps=1e-06, elementwise_affine=True)
          (ffn): FeedForwardNetwork(
            (activation_dropout_module): Dropout(p=0.0, inplace=False)
            (dropout_module): Dropout(p=0.0, inplace=False)
            (fc1): Linear(in_features=256, out_features=768, bias=True)
            (fc2): Linear(in_features=768, out_features=256, bias=True)
            (dwconv): DWConv2d(
              (conv): Conv2d(768, 768, kernel_size=(3, 3), stride=(1, 1), padding=(1, 1), groups=768)
            )
          )
          (pos): DWConv2d(
            (conv): Conv2d(256, 256, kernel_size=(3, 3), stride=(1, 1), padding=(1, 1), groups=256)
          )
        )
        (6): RetBlock(
          (retention_layer_norm): LayerNorm((256,), eps=1e-06, elementwise_affine=True)
          (retention): VisionRetentionChunk(
            (q_proj): Linear(in_features=256, out_features=256, bias=True)
            (k_proj): Linear(in_features=256, out_features=256, bias=True)
            (v_proj): Linear(in_features=256, out_features=256, bias=True)
            (lepe): DWConv2d(
              (conv): Conv2d(256, 256, kernel_size=(5, 5), stride=(1, 1), padding=(2, 2), groups=256)
            )
            (out_proj): Linear(in_features=256, out_features=256, bias=True)
          )
          (drop_path): DropPath(drop_prob=0.070)
          (final_layer_norm): LayerNorm((256,), eps=1e-06, elementwise_affine=True)
          (ffn): FeedForwardNetwork(
            (activation_dropout_module): Dropout(p=0.0, inplace=False)
            (dropout_module): Dropout(p=0.0, inplace=False)
            (fc1): Linear(in_features=256, out_features=768, bias=True)
            (fc2): Linear(in_features=768, out_features=256, bias=True)
            (dwconv): DWConv2d(
              (conv): Conv2d(768, 768, kernel_size=(3, 3), stride=(1, 1), padding=(1, 1), groups=768)
            )
          )
          (pos): DWConv2d(
            (conv): Conv2d(256, 256, kernel_size=(3, 3), stride=(1, 1), padding=(1, 1), groups=256)
          )
        )
        (7): RetBlock(
          (retention_layer_norm): LayerNorm((256,), eps=1e-06, elementwise_affine=True)
          (retention): VisionRetentionChunk(
            (q_proj): Linear(in_features=256, out_features=256, bias=True)
            (k_proj): Linear(in_features=256, out_features=256, bias=True)
            (v_proj): Linear(in_features=256, out_features=256, bias=True)
            (lepe): DWConv2d(
              (conv): Conv2d(256, 256, kernel_size=(5, 5), stride=(1, 1), padding=(2, 2), groups=256)
            )
            (out_proj): Linear(in_features=256, out_features=256, bias=True)
          )
          (drop_path): DropPath(drop_prob=0.075)
          (final_layer_norm): LayerNorm((256,), eps=1e-06, elementwise_affine=True)
          (ffn): FeedForwardNetwork(
            (activation_dropout_module): Dropout(p=0.0, inplace=False)
            (dropout_module): Dropout(p=0.0, inplace=False)
            (fc1): Linear(in_features=256, out_features=768, bias=True)
            (fc2): Linear(in_features=768, out_features=256, bias=True)
            (dwconv): DWConv2d(
              (conv): Conv2d(768, 768, kernel_size=(3, 3), stride=(1, 1), padding=(1, 1), groups=768)
            )
          )
          (pos): DWConv2d(
            (conv): Conv2d(256, 256, kernel_size=(3, 3), stride=(1, 1), padding=(1, 1), groups=256)
          )
        )
        (8): RetBlock(
          (retention_layer_norm): LayerNorm((256,), eps=1e-06, elementwise_affine=True)
          (retention): VisionRetentionChunk(
            (q_proj): Linear(in_features=256, out_features=256, bias=True)
            (k_proj): Linear(in_features=256, out_features=256, bias=True)
            (v_proj): Linear(in_features=256, out_features=256, bias=True)
            (lepe): DWConv2d(
              (conv): Conv2d(256, 256, kernel_size=(5, 5), stride=(1, 1), padding=(2, 2), groups=256)
            )
            (out_proj): Linear(in_features=256, out_features=256, bias=True)
          )
          (drop_path): DropPath(drop_prob=0.080)
          (final_layer_norm): LayerNorm((256,), eps=1e-06, elementwise_affine=True)
          (ffn): FeedForwardNetwork(
            (activation_dropout_module): Dropout(p=0.0, inplace=False)
            (dropout_module): Dropout(p=0.0, inplace=False)
            (fc1): Linear(in_features=256, out_features=768, bias=True)
            (fc2): Linear(in_features=768, out_features=256, bias=True)
            (dwconv): DWConv2d(
              (conv): Conv2d(768, 768, kernel_size=(3, 3), stride=(1, 1), padding=(1, 1), groups=768)
            )
          )
          (pos): DWConv2d(
            (conv): Conv2d(256, 256, kernel_size=(3, 3), stride=(1, 1), padding=(1, 1), groups=256)
          )
        )
        (9): RetBlock(
          (retention_layer_norm): LayerNorm((256,), eps=1e-06, elementwise_affine=True)
          (retention): VisionRetentionChunk(
            (q_proj): Linear(in_features=256, out_features=256, bias=True)
            (k_proj): Linear(in_features=256, out_features=256, bias=True)
            (v_proj): Linear(in_features=256, out_features=256, bias=True)
            (lepe): DWConv2d(
              (conv): Conv2d(256, 256, kernel_size=(5, 5), stride=(1, 1), padding=(2, 2), groups=256)
            )
            (out_proj): Linear(in_features=256, out_features=256, bias=True)
          )
          (drop_path): DropPath(drop_prob=0.086)
          (final_layer_norm): LayerNorm((256,), eps=1e-06, elementwise_affine=True)
          (ffn): FeedForwardNetwork(
            (activation_dropout_module): Dropout(p=0.0, inplace=False)
            (dropout_module): Dropout(p=0.0, inplace=False)
            (fc1): Linear(in_features=256, out_features=768, bias=True)
            (fc2): Linear(in_features=768, out_features=256, bias=True)
            (dwconv): DWConv2d(
              (conv): Conv2d(768, 768, kernel_size=(3, 3), stride=(1, 1), padding=(1, 1), groups=768)
            )
          )
          (pos): DWConv2d(
            (conv): Conv2d(256, 256, kernel_size=(3, 3), stride=(1, 1), padding=(1, 1), groups=256)
          )
        )
        (10): RetBlock(
          (retention_layer_norm): LayerNorm((256,), eps=1e-06, elementwise_affine=True)
          (retention): VisionRetentionChunk(
            (q_proj): Linear(in_features=256, out_features=256, bias=True)
            (k_proj): Linear(in_features=256, out_features=256, bias=True)
            (v_proj): Linear(in_features=256, out_features=256, bias=True)
            (lepe): DWConv2d(
              (conv): Conv2d(256, 256, kernel_size=(5, 5), stride=(1, 1), padding=(2, 2), groups=256)
            )
            (out_proj): Linear(in_features=256, out_features=256, bias=True)
          )
          (drop_path): DropPath(drop_prob=0.091)
          (final_layer_norm): LayerNorm((256,), eps=1e-06, elementwise_affine=True)
          (ffn): FeedForwardNetwork(
            (activation_dropout_module): Dropout(p=0.0, inplace=False)
            (dropout_module): Dropout(p=0.0, inplace=False)
            (fc1): Linear(in_features=256, out_features=768, bias=True)
            (fc2): Linear(in_features=768, out_features=256, bias=True)
            (dwconv): DWConv2d(
              (conv): Conv2d(768, 768, kernel_size=(3, 3), stride=(1, 1), padding=(1, 1), groups=768)
            )
          )
          (pos): DWConv2d(
            (conv): Conv2d(256, 256, kernel_size=(3, 3), stride=(1, 1), padding=(1, 1), groups=256)
          )
        )
        (11): RetBlock(
          (retention_layer_norm): LayerNorm((256,), eps=1e-06, elementwise_affine=True)
          (retention): VisionRetentionChunk(
            (q_proj): Linear(in_features=256, out_features=256, bias=True)
            (k_proj): Linear(in_features=256, out_features=256, bias=True)
            (v_proj): Linear(in_features=256, out_features=256, bias=True)
            (lepe): DWConv2d(
              (conv): Conv2d(256, 256, kernel_size=(5, 5), stride=(1, 1), padding=(2, 2), groups=256)
            )
            (out_proj): Linear(in_features=256, out_features=256, bias=True)
          )
          (drop_path): DropPath(drop_prob=0.096)
          (final_layer_norm): LayerNorm((256,), eps=1e-06, elementwise_affine=True)
          (ffn): FeedForwardNetwork(
            (activation_dropout_module): Dropout(p=0.0, inplace=False)
            (dropout_module): Dropout(p=0.0, inplace=False)
            (fc1): Linear(in_features=256, out_features=768, bias=True)
            (fc2): Linear(in_features=768, out_features=256, bias=True)
            (dwconv): DWConv2d(
              (conv): Conv2d(768, 768, kernel_size=(3, 3), stride=(1, 1), padding=(1, 1), groups=768)
            )
          )
          (pos): DWConv2d(
            (conv): Conv2d(256, 256, kernel_size=(3, 3), stride=(1, 1), padding=(1, 1), groups=256)
          )
        )
        (12): RetBlock(
          (retention_layer_norm): LayerNorm((256,), eps=1e-06, elementwise_affine=True)
          (retention): VisionRetentionChunk(
            (q_proj): Linear(in_features=256, out_features=256, bias=True)
            (k_proj): Linear(in_features=256, out_features=256, bias=True)
            (v_proj): Linear(in_features=256, out_features=256, bias=True)
            (lepe): DWConv2d(
              (conv): Conv2d(256, 256, kernel_size=(5, 5), stride=(1, 1), padding=(2, 2), groups=256)
            )
            (out_proj): Linear(in_features=256, out_features=256, bias=True)
          )
          (drop_path): DropPath(drop_prob=0.102)
          (final_layer_norm): LayerNorm((256,), eps=1e-06, elementwise_affine=True)
          (ffn): FeedForwardNetwork(
            (activation_dropout_module): Dropout(p=0.0, inplace=False)
            (dropout_module): Dropout(p=0.0, inplace=False)
            (fc1): Linear(in_features=256, out_features=768, bias=True)
            (fc2): Linear(in_features=768, out_features=256, bias=True)
            (dwconv): DWConv2d(
              (conv): Conv2d(768, 768, kernel_size=(3, 3), stride=(1, 1), padding=(1, 1), groups=768)
            )
          )
          (pos): DWConv2d(
            (conv): Conv2d(256, 256, kernel_size=(3, 3), stride=(1, 1), padding=(1, 1), groups=256)
          )
        )
        (13): RetBlock(
          (retention_layer_norm): LayerNorm((256,), eps=1e-06, elementwise_affine=True)
          (retention): VisionRetentionChunk(
            (q_proj): Linear(in_features=256, out_features=256, bias=True)
            (k_proj): Linear(in_features=256, out_features=256, bias=True)
            (v_proj): Linear(in_features=256, out_features=256, bias=True)
            (lepe): DWConv2d(
              (conv): Conv2d(256, 256, kernel_size=(5, 5), stride=(1, 1), padding=(2, 2), groups=256)
            )
            (out_proj): Linear(in_features=256, out_features=256, bias=True)
          )
          (drop_path): DropPath(drop_prob=0.107)
          (final_layer_norm): LayerNorm((256,), eps=1e-06, elementwise_affine=True)
          (ffn): FeedForwardNetwork(
            (activation_dropout_module): Dropout(p=0.0, inplace=False)
            (dropout_module): Dropout(p=0.0, inplace=False)
            (fc1): Linear(in_features=256, out_features=768, bias=True)
            (fc2): Linear(in_features=768, out_features=256, bias=True)
            (dwconv): DWConv2d(
              (conv): Conv2d(768, 768, kernel_size=(3, 3), stride=(1, 1), padding=(1, 1), groups=768)
            )
          )
          (pos): DWConv2d(
            (conv): Conv2d(256, 256, kernel_size=(3, 3), stride=(1, 1), padding=(1, 1), groups=256)
          )
        )
        (14): RetBlock(
          (retention_layer_norm): LayerNorm((256,), eps=1e-06, elementwise_affine=True)
          (retention): VisionRetentionChunk(
            (q_proj): Linear(in_features=256, out_features=256, bias=True)
            (k_proj): Linear(in_features=256, out_features=256, bias=True)
            (v_proj): Linear(in_features=256, out_features=256, bias=True)
            (lepe): DWConv2d(
              (conv): Conv2d(256, 256, kernel_size=(5, 5), stride=(1, 1), padding=(2, 2), groups=256)
            )
            (out_proj): Linear(in_features=256, out_features=256, bias=True)
          )
          (drop_path): DropPath(drop_prob=0.113)
          (final_layer_norm): LayerNorm((256,), eps=1e-06, elementwise_affine=True)
          (ffn): FeedForwardNetwork(
            (activation_dropout_module): Dropout(p=0.0, inplace=False)
            (dropout_module): Dropout(p=0.0, inplace=False)
            (fc1): Linear(in_features=256, out_features=768, bias=True)
            (fc2): Linear(in_features=768, out_features=256, bias=True)
            (dwconv): DWConv2d(
              (conv): Conv2d(768, 768, kernel_size=(3, 3), stride=(1, 1), padding=(1, 1), groups=768)
            )
          )
          (pos): DWConv2d(
            (conv): Conv2d(256, 256, kernel_size=(3, 3), stride=(1, 1), padding=(1, 1), groups=256)
          )
        )
        (15): RetBlock(
          (retention_layer_norm): LayerNorm((256,), eps=1e-06, elementwise_affine=True)
          (retention): VisionRetentionChunk(
            (q_proj): Linear(in_features=256, out_features=256, bias=True)
            (k_proj): Linear(in_features=256, out_features=256, bias=True)
            (v_proj): Linear(in_features=256, out_features=256, bias=True)
            (lepe): DWConv2d(
              (conv): Conv2d(256, 256, kernel_size=(5, 5), stride=(1, 1), padding=(2, 2), groups=256)
            )
            (out_proj): Linear(in_features=256, out_features=256, bias=True)
          )
          (drop_path): DropPath(drop_prob=0.118)
          (final_layer_norm): LayerNorm((256,), eps=1e-06, elementwise_affine=True)
          (ffn): FeedForwardNetwork(
            (activation_dropout_module): Dropout(p=0.0, inplace=False)
            (dropout_module): Dropout(p=0.0, inplace=False)
            (fc1): Linear(in_features=256, out_features=768, bias=True)
            (fc2): Linear(in_features=768, out_features=256, bias=True)
            (dwconv): DWConv2d(
              (conv): Conv2d(768, 768, kernel_size=(3, 3), stride=(1, 1), padding=(1, 1), groups=768)
            )
          )
          (pos): DWConv2d(
            (conv): Conv2d(256, 256, kernel_size=(3, 3), stride=(1, 1), padding=(1, 1), groups=256)
          )
        )
        (16): RetBlock(
          (retention_layer_norm): LayerNorm((256,), eps=1e-06, elementwise_affine=True)
          (retention): VisionRetentionChunk(
            (q_proj): Linear(in_features=256, out_features=256, bias=True)
            (k_proj): Linear(in_features=256, out_features=256, bias=True)
            (v_proj): Linear(in_features=256, out_features=256, bias=True)
            (lepe): DWConv2d(
              (conv): Conv2d(256, 256, kernel_size=(5, 5), stride=(1, 1), padding=(2, 2), groups=256)
            )
            (out_proj): Linear(in_features=256, out_features=256, bias=True)
          )
          (drop_path): DropPath(drop_prob=0.123)
          (final_layer_norm): LayerNorm((256,), eps=1e-06, elementwise_affine=True)
          (ffn): FeedForwardNetwork(
            (activation_dropout_module): Dropout(p=0.0, inplace=False)
            (dropout_module): Dropout(p=0.0, inplace=False)
            (fc1): Linear(in_features=256, out_features=768, bias=True)
            (fc2): Linear(in_features=768, out_features=256, bias=True)
            (dwconv): DWConv2d(
              (conv): Conv2d(768, 768, kernel_size=(3, 3), stride=(1, 1), padding=(1, 1), groups=768)
            )
          )
          (pos): DWConv2d(
            (conv): Conv2d(256, 256, kernel_size=(3, 3), stride=(1, 1), padding=(1, 1), groups=256)
          )
        )
        (17): RetBlock(
          (retention_layer_norm): LayerNorm((256,), eps=1e-06, elementwise_affine=True)
          (retention): VisionRetentionChunk(
            (q_proj): Linear(in_features=256, out_features=256, bias=True)
            (k_proj): Linear(in_features=256, out_features=256, bias=True)
            (v_proj): Linear(in_features=256, out_features=256, bias=True)
            (lepe): DWConv2d(
              (conv): Conv2d(256, 256, kernel_size=(5, 5), stride=(1, 1), padding=(2, 2), groups=256)
            )
            (out_proj): Linear(in_features=256, out_features=256, bias=True)
          )
          (drop_path): DropPath(drop_prob=0.129)
          (final_layer_norm): LayerNorm((256,), eps=1e-06, elementwise_affine=True)
          (ffn): FeedForwardNetwork(
            (activation_dropout_module): Dropout(p=0.0, inplace=False)
            (dropout_module): Dropout(p=0.0, inplace=False)
            (fc1): Linear(in_features=256, out_features=768, bias=True)
            (fc2): Linear(in_features=768, out_features=256, bias=True)
            (dwconv): DWConv2d(
              (conv): Conv2d(768, 768, kernel_size=(3, 3), stride=(1, 1), padding=(1, 1), groups=768)
            )
          )
          (pos): DWConv2d(
            (conv): Conv2d(256, 256, kernel_size=(3, 3), stride=(1, 1), padding=(1, 1), groups=256)
          )
        )
      )
      (downsample): PatchMerging(
        (reduction): Conv2d(256, 512, kernel_size=(3, 3), stride=(2, 2), padding=(1, 1))
        (norm): BatchNorm2d(512, eps=1e-05, momentum=0.1, affine=True, track_running_stats=True)
      )
    )
    (3): BasicLayer(
      (Relpos): RetNetRelPos2d()
      (blocks): ModuleList(
        (0): RetBlock(
          (retention_layer_norm): LayerNorm((512,), eps=1e-06, elementwise_affine=True)
          (retention): VisionRetentionAll(
            (q_proj): Linear(in_features=512, out_features=512, bias=True)
            (k_proj): Linear(in_features=512, out_features=512, bias=True)
            (v_proj): Linear(in_features=512, out_features=512, bias=True)
            (lepe): DWConv2d(
              (conv): Conv2d(512, 512, kernel_size=(5, 5), stride=(1, 1), padding=(2, 2), groups=512)
            )
            (out_proj): Linear(in_features=512, out_features=512, bias=True)
          )
          (drop_path): DropPath(drop_prob=0.134)
          (final_layer_norm): LayerNorm((512,), eps=1e-06, elementwise_affine=True)
          (ffn): FeedForwardNetwork(
            (activation_dropout_module): Dropout(p=0.0, inplace=False)
            (dropout_module): Dropout(p=0.0, inplace=False)
            (fc1): Linear(in_features=512, out_features=1536, bias=True)
            (fc2): Linear(in_features=1536, out_features=512, bias=True)
            (dwconv): DWConv2d(
              (conv): Conv2d(1536, 1536, kernel_size=(3, 3), stride=(1, 1), padding=(1, 1), groups=1536)
            )
          )
          (pos): DWConv2d(
            (conv): Conv2d(512, 512, kernel_size=(3, 3), stride=(1, 1), padding=(1, 1), groups=512)
          )
        )
        (1): RetBlock(
          (retention_layer_norm): LayerNorm((512,), eps=1e-06, elementwise_affine=True)
          (retention): VisionRetentionAll(
            (q_proj): Linear(in_features=512, out_features=512, bias=True)
            (k_proj): Linear(in_features=512, out_features=512, bias=True)
            (v_proj): Linear(in_features=512, out_features=512, bias=True)
            (lepe): DWConv2d(
              (conv): Conv2d(512, 512, kernel_size=(5, 5), stride=(1, 1), padding=(2, 2), groups=512)
            )
            (out_proj): Linear(in_features=512, out_features=512, bias=True)
          )
          (drop_path): DropPath(drop_prob=0.139)
          (final_layer_norm): LayerNorm((512,), eps=1e-06, elementwise_affine=True)
          (ffn): FeedForwardNetwork(
            (activation_dropout_module): Dropout(p=0.0, inplace=False)
            (dropout_module): Dropout(p=0.0, inplace=False)
            (fc1): Linear(in_features=512, out_features=1536, bias=True)
            (fc2): Linear(in_features=1536, out_features=512, bias=True)
            (dwconv): DWConv2d(
              (conv): Conv2d(1536, 1536, kernel_size=(3, 3), stride=(1, 1), padding=(1, 1), groups=1536)
            )
          )
          (pos): DWConv2d(
            (conv): Conv2d(512, 512, kernel_size=(3, 3), stride=(1, 1), padding=(1, 1), groups=512)
          )
        )
        (2): RetBlock(
          (retention_layer_norm): LayerNorm((512,), eps=1e-06, elementwise_affine=True)
          (retention): VisionRetentionAll(
            (q_proj): Linear(in_features=512, out_features=512, bias=True)
            (k_proj): Linear(in_features=512, out_features=512, bias=True)
            (v_proj): Linear(in_features=512, out_features=512, bias=True)
            (lepe): DWConv2d(
              (conv): Conv2d(512, 512, kernel_size=(5, 5), stride=(1, 1), padding=(2, 2), groups=512)
            )
            (out_proj): Linear(in_features=512, out_features=512, bias=True)
          )
          (drop_path): DropPath(drop_prob=0.145)
          (final_layer_norm): LayerNorm((512,), eps=1e-06, elementwise_affine=True)
          (ffn): FeedForwardNetwork(
            (activation_dropout_module): Dropout(p=0.0, inplace=False)
            (dropout_module): Dropout(p=0.0, inplace=False)
            (fc1): Linear(in_features=512, out_features=1536, bias=True)
            (fc2): Linear(in_features=1536, out_features=512, bias=True)
            (dwconv): DWConv2d(
              (conv): Conv2d(1536, 1536, kernel_size=(3, 3), stride=(1, 1), padding=(1, 1), groups=1536)
            )
          )
          (pos): DWConv2d(
            (conv): Conv2d(512, 512, kernel_size=(3, 3), stride=(1, 1), padding=(1, 1), groups=512)
          )
        )
        (3): RetBlock(
          (retention_layer_norm): LayerNorm((512,), eps=1e-06, elementwise_affine=True)
          (retention): VisionRetentionAll(
            (q_proj): Linear(in_features=512, out_features=512, bias=True)
            (k_proj): Linear(in_features=512, out_features=512, bias=True)
            (v_proj): Linear(in_features=512, out_features=512, bias=True)
            (lepe): DWConv2d(
              (conv): Conv2d(512, 512, kernel_size=(5, 5), stride=(1, 1), padding=(2, 2), groups=512)
            )
            (out_proj): Linear(in_features=512, out_features=512, bias=True)
          )
          (drop_path): DropPath(drop_prob=0.150)
          (final_layer_norm): LayerNorm((512,), eps=1e-06, elementwise_affine=True)
          (ffn): FeedForwardNetwork(
            (activation_dropout_module): Dropout(p=0.0, inplace=False)
            (dropout_module): Dropout(p=0.0, inplace=False)
            (fc1): Linear(in_features=512, out_features=1536, bias=True)
            (fc2): Linear(in_features=1536, out_features=512, bias=True)
            (dwconv): DWConv2d(
              (conv): Conv2d(1536, 1536, kernel_size=(3, 3), stride=(1, 1), padding=(1, 1), groups=1536)
            )
          )
          (pos): DWConv2d(
            (conv): Conv2d(512, 512, kernel_size=(3, 3), stride=(1, 1), padding=(1, 1), groups=512)
          )
        )
      )
    )
  )
  (proj): Linear(in_features=512, out_features=1024, bias=True)
  (norm): BatchNorm2d(1024, eps=1e-05, momentum=0.1, affine=True, track_running_stats=True)
  (swish): MemoryEfficientSwish()
  (avgpool): AdaptiveAvgPool1d(output_size=1)
  (head): Linear(in_features=1024, out_features=1000, bias=True)
)
| module                        | #parameters or shape   | #flops     |
|:------------------------------|:-----------------------|:-----------|
| model                         | 26.967M                | 4.8G       |
|  patch_embed.proj             |  65.952K               |  0.302G    |
|   patch_embed.proj.0          |   0.896K               |   10.838M  |
…
