…
.0, cutmix_minmax=None, mixup_prob=1.0, mixup_switch_prob=0.5, mixup_mode='batch', teacher_model='regnety_160', teacher_path='', distillation_type='none', distillation_alpha=0.5, distillation_tau=1.0, finetune='', data_path='/data2/ImageNet1k/data/', data_set='IMNET', inat_category='name', output_dir='save', device='cuda', seed=0, resume='', start_epoch=0, eval=False, dist_eval=True, num_workers=16, pin_mem=True, world_size=2, dist_url='env://', rank=0, gpu=0, distributed=True, dist_backend='nccl')
Creating model: Utentive
Utentive(
  (patch_embed): PatchEmbed(
    (proj): Sequential(
      (0): Conv2d(3, 32, kernel_size=(3, 3), stride=(2, 2), padding=(1, 1))
      (1): BatchNorm2d(32, eps=1e-05, momentum=0.1, affine=True, track_running_stats=True)
      (2): GELU(approximate='none')
      (3): Conv2d(32, 32, kernel_size=(3, 3), stride=(1, 1), padding=(1, 1))
      (4): BatchNorm2d(32, eps=1e-05, momentum=0.1, affine=True, track_running_stats=True)
      (5): GELU(approximate='none')
      (6): Conv2d(32, 64, kernel_size=(3, 3), stride=(2, 2), padding=(1, 1))
      (7): BatchNorm2d(64, eps=1e-05, momentum=0.1, affine=True, track_running_stats=True)
      (8): GELU(approximate='none')
      (9): Conv2d(64, 64, kernel_size=(3, 3), stride=(1, 1), padding=(1, 1))
      (10): BatchNorm2d(64, eps=1e-05, momentum=0.1, affine=True, track_running_stats=True)
    )
  )
  (encoder_level1): uLayer(
    (Relpos): RetNetRelPos2d()
    (blocks): ModuleList(
      (0-1): 2 x RetBlock(
        (retention_layer_norm): LayerNorm((64,), eps=1e-06, elementwise_affine=True)
        (retention): VisionRetentionChunk(
          (q_proj): Linear(in_features=64, out_features=64, bias=True)
          (k_proj): Linear(in_features=64, out_features=64, bias=True)
          (v_proj): Linear(in_features=64, out_features=64, bias=True)
          (lepe): DWConv2d(
            (conv): Conv2d(64, 64, kernel_size=(5, 5), stride=(1, 1), padding=(2, 2), groups=64)
          )
          (out_proj): Linear(in_features=64, out_features=64, bias=True)
        )
        (drop_path): DropPath(drop_prob=0.000)
        (final_layer_norm): LayerNorm((64,), eps=1e-06, elementwise_affine=True)
        (ffn): FeedForwardNetwork(
          (activation_dropout_module): Dropout(p=0.0, inplace=False)
          (dropout_module): Dropout(p=0.0, inplace=False)
          (fc1): Linear(in_features=64, out_features=192, bias=True)
          (fc2): Linear(in_features=192, out_features=64, bias=True)
          (dwconv): DWConv2d(
            (conv): Conv2d(192, 192, kernel_size=(3, 3), stride=(1, 1), padding=(1, 1), groups=192)
          )
        )
        (pos): DWConv2d(
          (conv): Conv2d(64, 64, kernel_size=(3, 3), stride=(1, 1), padding=(1, 1), groups=64)
        )
      )
    )
  )
  (down1_2): Downsample(
    (body): Sequential(
      (0): Conv2d(64, 32, kernel_size=(3, 3), stride=(1, 1), padding=(1, 1), bias=False)
      (1): PixelUnshuffle(downscale_factor=2)
    )
  )
  (encoder_level2): uLayer(
    (Relpos): RetNetRelPos2d()
    (blocks): ModuleList(
      (0-3): 4 x RetBlock(
        (retention_layer_norm): LayerNorm((128,), eps=1e-06, elementwise_affine=True)
        (retention): VisionRetentionChunk(
          (q_proj): Linear(in_features=128, out_features=128, bias=True)
          (k_proj): Linear(in_features=128, out_features=128, bias=True)
          (v_proj): Linear(in_features=128, out_features=128, bias=True)
          (lepe): DWConv2d(
            (conv): Conv2d(128, 128, kernel_size=(5, 5), stride=(1, 1), padding=(2, 2), groups=128)
          )
          (out_proj): Linear(in_features=128, out_features=128, bias=True)
        )
        (drop_path): DropPath(drop_prob=0.000)
        (final_layer_norm): LayerNorm((128,), eps=1e-06, elementwise_affine=True)
        (ffn): FeedForwardNetwork(
          (activation_dropout_module): Dropout(p=0.0, inplace=False)
          (dropout_module): Dropout(p=0.0, inplace=False)
          (fc1): Linear(in_features=128, out_features=192, bias=True)
          (fc2): Linear(in_features=192, out_features=128, bias=True)
          (dwconv): DWConv2d(
            (conv): Conv2d(192, 192, kernel_size=(3, 3), stride=(1, 1), padding=(1, 1), groups=192)
          )
        )
        (pos): DWConv2d(
          (conv): Conv2d(128, 128, kernel_size=(3, 3), stride=(1, 1), padding=(1, 1), groups=128)
        )
      )
    )
  )
  (down2_3): Downsample(
    (body): Sequential(
      (0): Conv2d(128, 64, kernel_size=(3, 3), stride=(1, 1), padding=(1, 1), bias=False)
      (1): PixelUnshuffle(downscale_factor=2)
    )
  )
  (encoder_level3): uLayer(
    (Relpos): RetNetRelPos2d()
    (blocks): ModuleList(
      (0-3): 4 x RetBlock(
        (retention_layer_norm): LayerNorm((256,), eps=1e-06, elementwise_affine=True)
        (retention): VisionRetentionChunk(
          (q_proj): Linear(in_features=256, out_features=256, bias=True)
          (k_proj): Linear(in_features=256, out_features=256, bias=True)
          (v_proj): Linear(in_features=256, out_features=256, bias=True)
          (lepe): DWConv2d(
            (conv): Conv2d(256, 256, kernel_size=(5, 5), stride=(1, 1), padding=(2, 2), groups=256)
          )
          (out_proj): Linear(in_features=256, out_features=256, bias=True)
        )
        (drop_path): DropPath(drop_prob=0.000)
        (final_layer_norm): LayerNorm((256,), eps=1e-06, elementwise_affine=True)
        (ffn): FeedForwardNetwork(
          (activation_dropout_module): Dropout(p=0.0, inplace=False)
          (dropout_module): Dropout(p=0.0, inplace=False)
          (fc1): Linear(in_features=256, out_features=192, bias=True)
          (fc2): Linear(in_features=192, out_features=256, bias=True)
          (dwconv): DWConv2d(
            (conv): Conv2d(192, 192, kernel_size=(3, 3), stride=(1, 1), padding=(1, 1), groups=192)
          )
        )
        (pos): DWConv2d(
          (conv): Conv2d(256, 256, kernel_size=(3, 3), stride=(1, 1), padding=(1, 1), groups=256)
        )
      )
    )
  )
  (down3_4): Downsample(
    (body): Sequential(
      (0): Conv2d(256, 128, kernel_size=(3, 3), stride=(1, 1), padding=(1, 1), bias=False)
      (1): PixelUnshuffle(downscale_factor=2)
    )
  )
  (latent): uLayer(
    (Relpos): RetNetRelPos2d()
    (blocks): ModuleList(
      (0-5): 6 x RetBlock(
        (retention_layer_norm): LayerNorm((512,), eps=1e-06, elementwise_affine=True)
        (retention): VisionRetentionAll(
          (q_proj): Linear(in_features=512, out_features=512, bias=True)
          (k_proj): Linear(in_features=512, out_features=512, bias=True)
          (v_proj): Linear(in_features=512, out_features=512, bias=True)
          (lepe): DWConv2d(
            (conv): Conv2d(512, 512, kernel_size=(5, 5), stride=(1, 1), padding=(2, 2), groups=512)
          )
          (out_proj): Linear(in_features=512, out_features=512, bias=True)
        )
        (drop_path): DropPath(drop_prob=0.000)
        (final_layer_norm): LayerNorm((512,), eps=1e-06, elementwise_affine=True)
        (ffn): FeedForwardNetwork(
          (activation_dropout_module): Dropout(p=0.0, inplace=False)
          (dropout_module): Dropout(p=0.0, inplace=False)
          (fc1): Linear(in_features=512, out_features=192, bias=True)
          (fc2): Linear(in_features=192, out_features=512, bias=True)
          (dwconv): DWConv2d(
            (conv): Conv2d(192, 192, kernel_size=(3, 3), stride=(1, 1), padding=(1, 1), groups=192)
          )
        )
        (pos): DWConv2d(
          (conv): Conv2d(512, 512, kernel_size=(3, 3), stride=(1, 1), padding=(1, 1), groups=512)
        )
      )
    )
  )
  (up4_3): Upsample(
    (body): Sequential(
      (0): Conv2d(512, 1024, kernel_size=(3, 3), stride=(1, 1), padding=(1, 1), bias=False)
      (1): PixelShuffle(upscale_factor=2)
    )
  )
  (reduce_chan_level3): Conv2d(512, 256, kernel_size=(1, 1), stride=(1, 1))
  (decoder_level3): uLayer(
    (Relpos): RetNetRelPos2d()
    (blocks): ModuleList(
      (0-3): 4 x RetBlock(
        (retention_layer_norm): LayerNorm((256,), eps=1e-06, elementwise_affine=True)
        (retention): VisionRetentionChunk(
          (q_proj): Linear(in_features=256, out_features=256, bias=True)
          (k_proj): Linear(in_features=256, out_features=256, bias=True)
          (v_proj): Linear(in_features=256, out_features=256, bias=True)
          (lepe): DWConv2d(
            (conv): Conv2d(256, 256, kernel_size=(5, 5), stride=(1, 1), padding=(2, 2), groups=256)
          )
          (out_proj): Linear(in_features=256, out_features=256, bias=True)
        )
        (drop_path): DropPath(drop_prob=0.000)
        (final_layer_norm): LayerNorm((256,), eps=1e-06, elementwise_affine=True)
        (ffn): FeedForwardNetwork(
          (activation_dropout_module): Dropout(p=0.0, inplace=False)
          (dropout_module): Dropout(p=0.0, inplace=False)
          (fc1): Linear(in_features=256, out_features=192, bias=True)
          (fc2): Linear(in_features=192, out_features=256, bias=True)
          (dwconv): DWConv2d(
            (conv): Conv2d(192, 192, kernel_size=(3, 3), stride=(1, 1), padding=(1, 1), groups=192)
          )
        )
        (pos): DWConv2d(
          (conv): Conv2d(256, 256, kernel_size=(3, 3), stride=(1, 1), padding=(1, 1), groups=256)
        )
      )
    )
  )
  (up3_2): Upsample(
    (body): Sequential(
      (0): Conv2d(256, 512, kernel_size=(3, 3), stride=(1, 1), padding=(1, 1), bias=False)
      (1): PixelShuffle(upscale_factor=2)
    )
  )
  (reduce_chan_level2): Conv2d(256, 128, kernel_size=(1, 1), stride=(1, 1))
  (decoder_level2): uLayer(
    (Relpos): RetNetRelPos2d()
    (blocks): ModuleList(
      (0-3): 4 x RetBlock(
        (retention_layer_norm): LayerNorm((128,), eps=1e-06, elementwise_affine=True)
        (retention): VisionRetentionChunk(
          (q_proj): Linear(in_features=128, out_features=128, bias=True)
          (k_proj): Linear(in_features=128, out_features=128, bias=True)
          (v_proj): Linear(in_features=128, out_features=128, bias=True)
          (lepe): DWConv2d(
            (conv): Conv2d(128, 128, kernel_size=(5, 5), stride=(1, 1), padding=(2, 2), groups=128)
          )
          (out_proj): Linear(in_features=128, out_features=128, bias=True)
        )
        (drop_path): DropPath(drop_prob=0.000)
        (final_layer_norm): LayerNorm((128,), eps=1e-06, elementwise_affine=True)
        (ffn): FeedForwardNetwork(
          (activation_dropout_module): Dropout(p=0.0, inplace=False)
          (dropout_module): Dropout(p=0.0, inplace=False)
          (fc1): Linear(in_features=128, out_features=192, bias=True)
          (fc2): Linear(in_features=192, out_features=128, bias=True)
          (dwconv): DWConv2d(
            (conv): Conv2d(192, 192, kernel_size=(3, 3), stride=(1, 1), padding=(1, 1), groups=192)
          )
        )
        (pos): DWConv2d(
          (conv): Conv2d(128, 128, kernel_size=(3, 3), stride=(1, 1), padding=(1, 1), groups=128)
        )
      )
    )
  )
  (up2_1): Upsample(
    (body): Sequential(
      (0): Conv2d(128, 256, kernel_size=(3, 3), stride=(1, 1), padding=(1, 1), bias=False)
      (1): PixelShuffle(upscale_factor=2)
    )
  )
  (decoder_level1): uLayer(
    (Relpos): RetNetRelPos2d()
    (blocks): ModuleList(
      (0-1): 2 x RetBlock(
        (retention_layer_norm): LayerNorm((128,), eps=1e-06, elementwise_affine=True)
        (retention): VisionRetentionChunk(
          (q_proj): Linear(in_features=128, out_features=128, bias=True)
          (k_proj): Linear(in_features=128, out_features=128, bias=True)
          (v_proj): Linear(in_features=128, out_features=128, bias=True)
          (lepe): DWConv2d(
            (conv): Conv2d(128, 128, kernel_size=(5, 5), stride=(1, 1), padding=(2, 2), groups=128)
          )
          (out_proj): Linear(in_features=128, out_features=128, bias=True)
        )
        (drop_path): DropPath(drop_prob=0.000)
        (final_layer_norm): LayerNorm((128,), eps=1e-06, elementwise_affine=True)
        (ffn): FeedForwardNetwork(
          (activation_dropout_module): Dropout(p=0.0, inplace=False)
          (dropout_module): Dropout(p=0.0, inplace=False)
          (fc1): Linear(in_features=128, out_features=192, bias=True)
          (fc2): Linear(in_features=192, out_features=128, bias=True)
          (dwconv): DWConv2d(
            (conv): Conv2d(192, 192, kernel_size=(3, 3), stride=(1, 1), padding=(1, 1), groups=192)
          )
        )
        (pos): DWConv2d(
          (conv): Conv2d(128, 128, kernel_size=(3, 3), stride=(1, 1), padding=(1, 1), groups=128)
        )
      )
    )
  )
  (patchMerge): PatchMerge(
    (conv1): Conv2d(128, 128, kernel_size=(3, 3), stride=(2, 2), padding=(1, 1))
    (bn1): BatchNorm2d(128, eps=1e-05, momentum=0.1, affine=True, track_running_stats=True)
    (conv2): Conv2d(128, 256, kernel_size=(3, 3), stride=(2, 2), padding=(1, 1))
    (bn2): BatchNorm2d(256, eps=1e-05, momentum=0.1, affine=True, track_running_stats=True)
    (conv3): Conv2d(256, 512, kernel_size=(3, 3), stride=(2, 2), padding=(1, 1))
    (bn3): BatchNorm2d(512, eps=1e-05, momentum=0.1, affine=True, track_running_stats=True)
  )
  (proj): Linear(in_features=512, out_features=1024, bias=True)
  (norm): BatchNorm2d(1024, eps=1e-05, momentum=0.1, affine=True, track_running_stats=True)
  (swish): MemoryEfficientSwish()
  (avgpool): AdaptiveAvgPool1d(output_size=1)
  (head): Linear(in_features=1024, out_features=1000, bias=True)
)
| module                                          | #parameters or shape   | #flops     |
|:------------------------------------------------|:-----------------------|:-----------|
| model                                           | 21.92M                 | 4.651G     |
|  patch_embed.proj                               |  65.952K               |  0.302G    |
…
